model/mnist.pth (torch_old, 47939 bytes, 3 tensors)

conv1.weight f4 [8, 1, 5, 5]
0	0xbddb1362	-0.10697056
1	0xbe431f61	-0.19054939
2	0x3d150dc4	0.03639008
3	0x3e5cdf65	0.21569593
4	0x3e8ee761	0.27910903
5	0xbce68689	-0.028140323
6	0x3dd0147e	0.101601586
7	0x3e3c1ffb	0.18371575
8	0xbb5e3f73	-0.003391233
9	0x3e20e634	0.15712816
10	0xbdfa6c65	-0.12227706
11	0x3dafd3c3	0.08585312
12	0x3e5e11e5	0.21686514
13	0xbe040d89	-0.12895788
14	0xbbd4b5b1	-0.006491386
15	0xbe1cb22a	-0.15302339
16	0x3c897ecd	0.016784096
17	0xbd5dda70	-0.054163396
18	0xbde35b0b	-0.111013494
19	0x3e03de39	0.1287774
20	0x3e7f0125	0.2490278
21	0x3d24e8eb	0.04026119
22	0xbe50bda4	-0.20384842
23	0xbdd0b036	-0.101898596
24	0x3d90afb0	0.0706476
25	0xbd63d9e8	-0.055627733
26	0xbec621c8	-0.38697648
27	0xbd380f14	-0.044936255
28	0x3e89f089	0.26941326
29	0x3e40692c	0.1879012
30	0x3c383db2	0.011245178
31	0x3ea9ecd5	0.331885
32	0x3f0efd31	0.5585509
33	0x3f40e483	0.7534868
34	0x3f4ff22f	0.8122892
35	0xbd69a019	-0.057037447
36	0x3edd0ed3	0.43175372
37	0x3f822d88	1.0170145
38	0x3fb871ec	1.4409766
39	0x3f73d1fb	0.9524228
40	0xbbe8b14a	-0.0071012126
41	0x3f223446	0.6336101
42	0x3f9335cd	1.1500794
43	0x3fa4f292	1.2886527
44	0x3f642565	0.8911956
45	0xbdc84ed6	-0.09780662
46	0x3e0f19ac	0.13974637
47	0x3ec93076	0.39294785
48	0x3f1c052f	0.6094541
49	0x3edba9af	0.42902896
50	0xbd1fec22	-0.039043553
51	0x3e2bb8a0	0.16769648
52	0x3e76795e	0.24069735
53	0x3ea701ff	0.3261871
54	0x3e8685d2	0.26273972
55	0xbc6b4275	-0.014359106
56	0xbe260d9f	-0.16216134
57	0xbe06f422	-0.13179067
58	0x3ea24366	0.31692046
59	0x3e2ccba4	0.16874558
60	0x3d36ca57	0.04462656
61	0xbe56fbf3	-0.20994548
62	0xbdf3f770	-0.11912429
63	0xbdfa493d	-0.12221
64	0x3e8a80aa	0.27051288
65	0xbdcc5d56	-0.0997874
66	0xbe33d114	-0.17560226
67	0xbe0f63be	-0.14002892
68	0xbd3d5c68	-0.046230704
69	0x3dd487c9	0.103774615
70	0xbdda6dd6	-0.10665481
71	0x3c82920a	0.015938777
72	0xbac590a5	-0.0015073015
73	0xbe879c16	-0.26486272
74	0xbe0bc4ae	-0.13649246
75	0xbe37c701	-0.17947008
76	0xbe14a043	-0.1451426
77	0x3dfb5e58	0.12273854
78	0xbe2e1fe5	-0.17004354
79	0x3d394d78	0.045239896
80	0xbddbe3ac	-0.10736784
81	0xbe4ac675	-0.19802268
82	0x3c9b2bf3	0.018941855
83	0xbd82cce3	-0.06386735
84	0xbe1dfdc5	-0.15428837
85	0xbe41711d	-0.18890806
86	0xbd88e10a	-0.06683548
87	0xbdcf7b24	-0.10130909
88	0x3e117553	0.14204912
89	0xbd7ca0e7	-0.061676886
90	0xbd14b86e	-0.0363087
91	0x3e366fb7	0.17816053
92	0xbe0106e8	-0.12600291
93	0x3e210d9c	0.15727848
94	0xbe38d9cf	-0.18051837
95	0xbe30d628	-0.17269194
96	0x3db873a8	0.09006435
97	0x3d0fdc43	0.035122167
98	0xbd92df97	-0.07171553
99	0xbd065ae8	-0.03280154
100	0xbddb1afd	-0.10698507
101	0xbe5f35d4	-0.21797878
102	0xbcf96a50	-0.030446202
103	0xbe21b276	-0.15790734
104	0x3d288026	0.041137837
105	0xbe368dd4	-0.1782754
106	0xbd78f605	-0.060781498
107	0xbe8c0a91	-0.27351812
108	0xbe85cfbd	-0.26135054
109	0xbe703563	-0.23457865
110	0x3e6e5eef	0.23278402
111	0xbe5c97c9	-0.21542276
112	0x3da851a0	0.08218694
113	0xbe2fb5cb	-0.17159192
114	0x3d8d97c4	0.069137126
115	0x3e796b79	0.24357404
116	0x3e769092	0.24078587
117	0x3e6c0d04	0.2305184
118	0x3e138bbc	0.14408773
119	0x3e6e6a77	0.232828
120	0x3e939266	0.2882263
121	0x3e75bb58	0.23997247
122	0x3e676f08	0.22600949
123	0x3e8c052b	0.27347693
124	0x3e08b8dc	0.13351768
125	0x3e625477	0.22102533
126	0x3f2160c0	0.63038254
127	0x3f27d5f2	0.6556083
128	0x3f1d7a16	0.61514413
129	0x3f075206	0.5285953
130	0x3ef0ccc2	0.47031218
131	0x3f3c2945	0.7350047
132	0x3f664ce2	0.89961064
133	0x3f658afc	0.896652
134	0x3f249fd6	0.6430639
135	0x3ec4d375	0.3844258
136	0x3f0ef57b	0.55843323
137	0x3f07c0a5	0.5302833
138	0x3f1c3352	0.6101581
139	0x3ecff825	0.40619007
140	0x3da86b69	0.08223612
141	0x3eabd1b7	0.33558437
142	0x3d9c0c74	0.07619563
143	0xbdbc8e84	-0.0920687
144	0xbe2cfb2e	-0.16892692
145	0xbe98e642	-0.29863173
146	0xbdf4c611	-0.11951841
147	0xbd462ecf	-0.048384484
148	0xbdfb7859	-0.12278814
149	0xbeb11336	-0.3458497
150	0x3ec75b5b	0.38936886
151	0x3f185757	0.5950827
152	0x3f0e9cd7	0.5570807
153	0x3e48f2ee	0.1962392
154	0xbe2c0008	-0.16796887
155	0x3f0cdc7c	0.5502393
156	0x3f389f72	0.72118294
157	0x3f40da7f	0.753334
158	0x3e892752	0.26787812
159	0x3e9147ef	0.28375193
160	0x3e8c9e86	0.27464694
161	0x3ee00132	0.43750912
162	0x3ed9a529	0.4250882
163	0x3df79600	0.12089157
164	0x3e1b6e41	0.15178777
165	0x3ebc4465	0.3677093
166	0x3e1c9289	0.15290274
167	0x3e2c6e27	0.16838895
168	0x3da49a9f	0.08037304
169	0xbd020f5c	-0.03175293
170	0x3db4af97	0.088225536
171	0xbdf4630e	-0.11932956
172	0xbe218625	-0.15773828
173	0xbc807262	-0.015679542
174	0xbdee3950	-0.11632025
175	0x3de2d1bf	0.11075162
176	0x3e7a1fce	0.24426195
177	0x3e398a84	0.18119246
178	0x3efc3def	0.49266002
179	0x3e47c47c	0.19508547
180	0x3f0def8a	0.5544363
181	0x3f304318	0.68852377
182	0x3f81e8d1	1.0149175
183	0x3f75d5fe	0.9602965
184	0x3efee25a	0.49782068
185	0x3f18fa18	0.5975661
186	0x3f803983	1.0017551
187	0x3f82c7aa	1.0217183
188	0x3f705092	0.9387294
189	0x3e97a8f4	0.29621089
190	0x3ead8340	0.33889198
191	0x3f37e1be	0.7182883
192	0x3f3891ac	0.7209728
193	0x3ea78a8b	0.32722887
194	0x3e88a679	0.2668951
195	0xbe13341a	-0.14375344
196	0xbe0ccaec	-0.13749284
197	0xbe637324	-0.22211891
198	0xbe1cc9f9	-0.15311421
199	0xbd0dc5ab	-0.03461234

conv2.weight f4 [32, 8, 5, 5]
0	0x3c0bcae0	0.008532256
1	0x3d029f5d	0.031890262
2	0x3c538b6e	0.012911661
3	0x3b2ae554	0.0026076632
4	0x3c750967	0.014955855
5	0xbd4bcf53	-0.049758267
6	0x3d401f2d	0.04690473
7	0x3d2f41d1	0.042787377
8	0xbcc3ec59	-0.02391641
9	0xbcf1c666	-0.029513549
10	0x3c2f5098	0.010700367
11	0xbda71891	-0.081589825
12	0xbd3e3ea8	-0.046446472
13	0xbc0558ca	-0.008138845
14	0xbc83c955	-0.016087214
15	0x3cecf2c7	0.028924359
16	0x3b69218f	0.003557298
17	0xbd00466e	-0.031317167
18	0xbd6426a1	-0.055700902
19	0x3b05860c	0.0020374088
20	0xbd7e3fa9	-0.06207243
21	0x3d1e919e	0.03871309
22	0x3d9dba06	0.07701497
23	0xbd06b879	-0.03289077
24	0x3d8ac37f	0.06775569
25	0x3da81aaf	0.082082145
26	0xbe1916f7	-0.14950167
27	0xbcbc8eff	-0.023017405
28	0x3e3e2edb	0.18572561
29	0x3d6a6bdd	0.057231773
30	0xbd05f2f7	-0.032702412
31	0xbe161f3e	-0.14660355
32	0x3dd821a9	0.10553295
33	0x3df5c315	0.120000996
34	0xbdacc483	-0.08435919
35	0xbe065ed1	-0.13122107
36	0xbd569af2	-0.05239386
37	0x3e0a82b8	0.13526428
38	0x3c95421b	0.018219998
39	0xbda0da1f	-0.07854103
40	0xbde546ef	-0.1119517
41	0x3c32da53	0.01091631
42	0x3e04bb77	0.12962137
43	0xbd6b0be3	-0.057384383
44	0xbd8f1d75	-0.0698804
45	0x3d28b135	0.041184623
46	0x3db58f72	0.08865251
47	0x3d8b5ed4	0.068051964
48	0xbd0cae61	-0.03434599
49	0xbc9248d9	-0.017857002
50	0x3d3606bf	0.044440027
51	0xbc21ccba	-0.009875471
52	0xbd8c03a7	-0.06836634
53	0x3d679e09	0.0565472
54	0xbd3a3328	-0.045458943
55	0xbd25b8d5	-0.040459473
56	0xbd3602c9	-0.04443625
57	0x3d303c68	0.043026358
58	0x3d861b2e	0.06548153
59	0xbd865c44	-0.06560567
60	0x3d2a84c8	0.041630536
61	0x3d4115af	0.04713982
62	0x3d1e8470	0.03870052
63	0xbd815529	-0.06315071
64	0x3c8abfe3	0.016937202
65	0x3ca1aa71	0.019734593
66	0xbd1a9b40	-0.037745714
67	0x3da473b9	0.08029885
68	0xbd458e2c	-0.04823129
69	0xbc85c0db	-0.016327312
70	0xbd10975b	-0.035300594
71	0x3c62ddb0	0.0138468
72	0x3cea7384	0.028619535
73	0x3d4c457c	0.049870953
74	0x3a65f67c	0.0008772386
75	0xbd827408	-0.063697875
76	0x3d10ecba	0.03538201
77	0x3d58d3d5	0.052936394
78	0x3c7da41c	0.015481021
79	0xbd31be96	-0.043394648
80	0x3cad0dd2	0.021124754
81	0x3d86b28a	0.065770224
82	0xbca2265d	-0.019793684
83	0xbd2d77b2	-0.04235048
84	0xbd4feffb	-0.050765973
85	0x3c70c1b9	0.014694625
86	0x3cf62658	0.03004758
87	0x3d918ea9	0.071072884
88	0x3d5a063c	0.0532286
89	0x3d86ae8e	0.065762624
90	0x3ca4903f	0.020088313
91	0x3d7367e5	0.059425253
92	0x3d5bd7df	0.053672668
93	0x3d351855	0.044212658
94	0x3cb086c8	0.021548644
95	0x3d6e29b4	0.05814524
96	0xbd832373	-0.06403246
97	0x3b06c243	0.0020562566
98	0xbd59b7bb	-0.053153735
99	0x3d2d1dab	0.04226462
100	0x3db51c6f	0.08843314
101	0x3c25bf6b	0.010116438
102	0x3d049b2d	0.03237455
103	0xbd9b16cc	-0.075727075
104	0xbc76b675	-0.01505815
105	0x3be88f71	0.0070971777
106	0x3cb6b684	0.022303827
107	0x3bd7b887	0.0065832767
108	0xbd60310c	-0.054734275
109	0x3cf545f5	0.029940585
110	0x3d445866	0.047935866
111	0xbd2dd7ec	-0.042442247
112	0xbd0e7c99	-0.034786794
113	0xbd909507	-0.07059675
114	0xbd8bdabc	-0.0682883
115	0x3d207338	0.03917238
116	0x3d7eba3f	0.062189337
117	0x3c4b4c8e	0.012408389
118	0xbd82ae85	-0.06380943
119	0xbd543f58	-0.05181822
120	0x3da0c8ec	0.07850823
121	0xbd041426	-0.032245778
122	0x3c2ec63a	0.010667378
123	0x3c39f787	0.011350519
124	0x3c3fa73b	0.011697586
125	0xbb01b996	-0.0019794456
126	0xbdad2267	-0.08453827
127	0xbe2061c9	-0.15662302
128	0x3d6bcef6	0.05757042
129	0x3d4e6f5e	0.050399177
130	0xbc1c3a64	-0.009535406
131	0xbbfefcf0	-0.0077816173
132	0xbe0c2422	-0.13685659
133	0x3d40bc73	0.04705472
134	0xb81e2b4a	-3.771045e-05
135	0xbbd4437d	-0.006477772
136	0xbd90dde8	-0.07073575
137	0x3c17acce	0.009257508
138	0x3dbce0e7	0.09222584
139	0x3d208c0a	0.03919605
140	0x3c7fca1e	0.015612153
141	0xbd89d477	-0.067299776
142	0x3db39f7f	0.08770656
143	0x3d4c64cd	0.04990082
144	0x3d611ec6	0.05496099
145	0xbda7b929	-0.08189613
146	0xbc515bdd	-0.01277825
147	0x3ddff107	0.10934644
148	0x3bab59db	0.0052292175
149	0x3ccb05d1	0.024783047
150	0xbd3cca59	-0.04609141
151	0xbd711073	-0.058853578
152	0xbd9ff6f4	-0.078107744
153	0xbda16dd3	-0.078822754
154	0x3d933398	0.07187575
155	0x3d8d4d50	0.06899512
156	0xbd440a76	-0.04786154
157	0xbddf1253	-0.10892167
158	0xbd73aae7	-0.059489157
159	0x3e0dda6c	0.13852853
160	0x3d39b78f	0.04534107
161	0xbd1fe3ba	-0.039035536
162	0xbc8187e1	-0.015811862
163	0x3c9aaba7	0.018880678
164	0x3df2220f	0.118229024
165	0xbd678c2b	-0.05653016
166	0x3b5fec5e	0.0034167985
167	0x3d8aedfa	0.06783672
168	0x3d747e01	0.05969048
169	0x3cd605f7	0.026125891
170	0x3d634bc9	0.055492196
171	0xbd61c602	-0.055120476
172	0xbb75c711	-0.0037502686
173	0x3d34504f	0.0440219
174	0x3d38f17b	0.04515217
175	0xbd136d52	-0.035992928
176	0xbda91b71	-0.08257187
177	0xbde730d4	-0.1128861
178	0x3d37504a	0.044754304
179	0x3dcaeff1	0.099090464
180	0xbb2e8b9a	-0.0026633502
181	0xbde7d5d8	-0.11320084
182	0xbe03ae84	-0.12859541
183	0x3e017f8a	0.12646309
184	0x3d7037c9	0.05864695
185	0x3c7b13bd	0.01532453
186	0xbda691d4	-0.08133283
187	0xbc59c863	-0.013292405
188	0x3e068a65	0.13138731
189	0x3daebde8	0.085323155
190	0xbccf8988	-0.025334135
191	0xbd9b7293	-0.07590213
192	0x3de4e21c	0.111759394
193	0x3e0f8d22	0.14018682
194	0xbccd3af1	-0.02505252
195	0xbcf59d74	-0.029982306
196	0xbd71e738	-0.059058398
197	0x3d149e16	0.036283575
198	0x3d79ea9b	0.061014753
199	0x3ccc119f	0.024910746
200	0x3d6e43e3	0.05817021
201	0x3d3d7753	0.046256375
202	0xbc403d29	-0.011733332
203	0xbd99f5df	-0.07517599
204	0x3cf95cee	0.03043982
205	0x3b3d404f	0.0028877442
206	0xbcd6e155	-0.026230494
207	0xbd6a4f65	-0.057204623
208	0xbce8b2bc	-0.02840554
209	0x3d2edc32	0.042690463
210	0x3d0c0a6a	0.03418962
211	0xb971591f	-0.00023016751
212	0xbd2e2d9c	-0.042523965
213	0x3cac1c13	0.02100948
214	0xbc2fe59f	-0.010735898
215	0xbc41b85a	-0.011823738
216	0xbd3e1834	-0.0464098
217	0x3c9372ae	0.01799902
218	0xbd35c37b	-0.044375878
219	0xbd04585c	-0.03231083
220	0xbd764595	-0.060124952
221	0xbb043081	-0.0020170512
222	0xbcbf1511	-0.023325475
223	0xbd877773	-0.0661458
224	0x3d0bdff6	0.034149133
225	0x3b822a09	0.003972296
226	0x3d69e224	0.05710043
227	0xbe1bcdf8	-0.1521529
228	0xbd0d5788	-0.034507304
229	0x3de67608	0.112529814
230	0x3c6736b5	0.014112164
231	0x3d73b748	0.059500962
232	0x3cc2c227	0.02377422
233	0x3db80d88	0.08986956
234	0x3df3b3dc	0.1189954
235	0x3d576fc0	0.052596807
236	0x3d75602b	0.059906166
237	0x3db4b3a6	0.08823328
238	0x3e365ff1	0.17810036
239	0x3e249e33	0.16075973
240	0xbe45ceaf	-0.19317125
241	0xbdef7fcc	-0.11694297
242	0xbe3bebe7	-0.18351708
243	0xbdac8a82	-0.08424856
244	0xbceb7879	-0.02874397
245	0xbe786be4	-0.24259907
246	0xbe3aa4c9	-0.18226923
247	0xbe90eb50	-0.2830453
248	0xbe8397ca	-0.25701743
249	0xbcb3c80f	-0.021945981
250	0xbca7248a	-0.020403165
251	0xbcdbc562	-0.026827518
252	0xbb3e5c2c	-0.0029046638
253	0x3be258f9	0.006907579
254	0x3d9cbe4f	0.07653486
255	0xbceb3fa2	-0.028716866

fc1.weight f4 [10, 512]
0	0x3cd9a224	0.026566572
1	0xbd12b52a	-0.035817303
2	0xbb6b4e55	-0.0035904844
3	0x3be9a23c	0.0071299355
4	0xbcd19f1f	-0.02558857
5	0xbdd53124	-0.104097635
6	0x3c8b5ede	0.01701301
7	0xbbbec923	-0.005822317
8	0xbdb4a2b7	-0.08820098
9	0xbd82132e	-0.063513145
10	0x3c25bbf0	0.010115609
11	0x3db16114	0.08661094
12	0xbcf74a11	-0.030186685
13	0xbe02cefa	-0.12774268
14	0xbc8d4149	-0.017243044
15	0x3d35aa3d	0.044351805
16	0xbd2b251d	-0.04178344
17	0x3d1cb057	0.03825411
18	0xbda50a60	-0.080586195
19	0xbc8783f1	-0.016542407
20	0xbd6ceb29	-0.057841454
21	0xbd832b88	-0.06404787
22	0x3ba75e5d	0.0051076845
23	0x3d3351f3	0.043779325
24	0x3b2e1590	0.0026563145
25	0xbbc234a7	-0.005926687
26	0xbcbd9973	-0.02314446
27	0x3d01c803	0.031684887
28	0x3e29b96d	0.1657464
29	0x3db429b2	0.08797015
30	0x3de590de	0.11209272
31	0x3d9911e8	0.074741185
32	0xbd9428b5	-0.07234327
33	0xbbd7eb51	-0.006589331
34	0x3d560e06	0.052259468
35	0xbda174a4	-0.078835756
36	0x3cb505a0	0.022097409
37	0x3cd787dc	0.0263099
38	0xbc91373c	-0.017726533
39	0xbdb81aac	-0.08989462
40	0xbe66b54d	-0.22530098
41	0x39aaf90c	0.0003261048
42	0xbdae2c31	-0.085045226
43	0x3c0aa867	0.008463002
44	0xbb29ab0c	-0.0025889305
45	0xbcfa9906	-0.030590545
46	0x3c15a61f	0.009133845
47	0x3d8440b2	0.06457652
48	0xbd5481eb	-0.051881712
49	0x3d76eb31	0.06028289
50	0x3dcb22b5	0.09918729
51	0x3c746fa2	0.014919193
52	0x3db9d3e9	0.09073622
53	0x3d71537e	0.058917515
54	0x3dc71cc1	0.09722281
55	0xbca50e3c	-0.020148389
56	0x3e01248f	0.12611602
57	0x3dc480ce	0.0959488
58	0xbe18db36	-0.14927372
59	0x3d99775a	0.07493468
60	0x3e52ffae	0.20605347
61	0x3d9a169b	0.07523843
62	0xbdd5c61c	-0.10438177
63	0x3d8e4a16	0.069477245
64	0xbd68bfe5	-0.05682363
65	0x3bbd4136	0.005775596
66	0x3d298a41	0.041391615
67	0xbd2779d3	-0.040887665
68	0x3d4970c0	0.049179792
69	0x3d3a027a	0.045412518
70	0x3d4d0a71	0.050058786
71	0xbcd0cdc6	-0.025488745
72	0x3d2b6bbd	0.041850794
73	0x3dc9cbe8	0.09853345
74	0xbd71f387	-0.059070136
75	0x3cddee8f	0.027091293
76	0xbc3e6a5b	-0.011622037
77	0x3db28189	0.08716113
78	0xbd1898eb	-0.03725521
79	0x3cd5d7e2	0.026103918
80	0x3d031088	0.031998187
81	0x3de73a14	0.112903744
82	0x3e22b215	0.15888245
83	0xbaa6c255	-0.001272271
84	0xbcf49a23	-0.029858654
85	0x3d2dbc05	0.042415638
86	0x3da328a6	0.079667374
87	0x3d53ab90	0.051677287
88	0xbe1b0295	-0.15137704
89	0xbd15251c	-0.036412343
90	0xbe087970	-0.13327575
91	0xbdcfafac	-0.101409286
92	0xbe1abe25	-0.15111597
93	0xbe455745	-0.19271572
94	0xbcb93e12	-0.022612605
95	0x3d108262	0.035280593
96	0x3add0d72	0.0016864969
97	0x3cb0d6ea	0.021586854
98	0xbb8cb2b1	-0.0042937626
99	0x3d72a304	0.059237495
100	0xbe0a71f7	-0.13520037
101	0xbdc71c74	-0.09722224
102	0xbd24f3f0	-0.0402717
103	0x3bdb7fbe	0.0066985777
104	0xbce7da05	-0.028302202
105	0xbd8dcdaa	-0.06923993
106	0xbd5a1674	-0.05324407
107	0xbd0c8c1d	-0.03431331
108	0x3d845a4d	0.06462536
109	0x3dc9a080	0.09845066
110	0xbc0efbbb	-0.008727009
111	0xbbe67bd5	-0.007033805
112	0xbc16f06a	-0.009212593
113	0x3ceccbd1	0.028905781
114	0x3d96cbd0	0.07363093
115	0x3df972dc	0.12180111
116	0xbe5dbecc	-0.21654814
117	0x3d1ce3fa	0.038303353
118	0x3dee63e1	0.11640144
119	0xbd4277bf	-0.04747748
120	0xbdc7785c	-0.097397536
121	0xbe1cc195	-0.1530822
122	0xbe2a7a7c	-0.16648287
123	0xbd801212	-0.06253447
124	0xbe22c19e	-0.15894172
125	0x3d840c94	0.064477116
126	0x3d056c95	0.032574255
127	0xb9615599	-0.0002148956
128	0xbc9e6001	-0.019332888
129	0xbc7c7d44	-0.015410725
130	0xbe1a525b	-0.15070479
131	0xbcdebdbf	-0.027190087
132	0x3d0c0e52	0.034193344
133	0x3d3b3074	0.045700505
134	0x3cba0053	0.022705233
135	0x3dbb7d70	0.09154785
136	0x3cc82a5b	0.02443426
137	0xbda9b253	-0.08285966
138	0x3d6a2a6c	0.057169363
139	0x3c0ac2ee	0.008469326
140	0xbd935044	-0.07193044
141	0xbdd217a0	-0.10258412
142	0x3c6d5aa3	0.0144869415
143	0xbd59fcfb	-0.053219777
144	0x3c81b5e4	0.015833803
145	0x3be45cf2	0.0069690878
146	0x3d75d4a8	0.060017258
147	0xbb3f26c3	-0.002916739
148	0x3d62c34e	0.05536204
149	0x3db61da8	0.08892375
150	0xbcbd5527	-0.023111893
151	0xbdeafb3e	-0.11473702
152	0xbc09a753	-0.00840171
153	0xbd33d97f	-0.043908592
154	0x3c702cb9	0.0146591
155	0x3e2a40a9	0.16626228
156	0xbdc1f6d2	-0.09470905
157	0x3b0f789a	0.0021891952
158	0xbc186d80	-0.009303451
159	0x3de152f6	0.11002152
160	0xbd033b70	-0.032039106
161	0x3d9b2036	0.07574503
162	0x3e87da41	0.26533702
163	0x3e0811e3	0.13288073
164	0xbd0830c2	-0.033249624
165	0xbcebfec7	-0.02880801
166	0x3e37b990	0.1794188
167	0x3dc29d38	0.09502643
168	0x3afcdfba	0.001929275
169	0xbd25e604	-0.040502563
170	0xbad5bbea	-0.0016306613
171	0x3baed208	0.0053350963
172	0x3b6770bf	0.0035315005
173	0xbd9db6f8	-0.07700914
174	0xbd910ffb	-0.07083126
175	0x3b77388a	0.003772291
176	0xbd51bd3c	-0.05120586
177	0x3cb68a73	0.022282815
178	0x3d50f216	0.05101212
179	0x3d5ff2b5	0.054674823
180	0x3c6fb490	0.014630452
181	0xbdb3c453	-0.0877768
182	0x3da1c6c3	0.07899239
183	0xbcba0b77	-0.022710545
184	0x3bce9edc	0.0063055586
185	0xbe0bb187	-0.1364194
186	0x3d7ebd8a	0.062192477
187	0xbc7360da	-0.014854634
188	0xbc7fd53e	-0.015614806
189	0xbce4d16b	-0.02793189
190	0x3d46df72	0.048552938
191	0x3d5fd6ab	0.054648083
192	0xbc0e0221	-0.0086675
193	0x3d2aab68	0.041667372
194	0xbc86df7b	-0.016463986
195	0x3da2b203	0.07944109
196	0xbd1e9c68	-0.03872338
197	0xbca436cf	-0.020045666
198	0xbba9171d	-0.005160226
199	0x3bca3929	0.006171365
200	0xbd4218c2	-0.047386892
201	0xbbbe35f9	-0.005804774
202	0xbd45cedd	-0.048292983
203	0xbdc769ed	-0.097370006
204	0x3d2ab762	0.041678794
205	0x3e1fb3ac	0.15595883
206	0x3e39cd44	0.18144709
207	0xbcf17fa9	-0.029479818
208	0x3d06361e	0.032766454
209	0x3d098f53	0.03358395
210	0x3d33b0c6	0.043869756
211	0xbe142026	-0.14465389
212	0xbd2eb184	-0.04264976
213	0xbd75fd9f	-0.060056325
214	0xbdb9f90f	-0.09080707
215	0xbcb7d6bd	-0.022441262
216	0x3cbed789	0.023296135
217	0xbdbc0aaa	-0.091817215
218	0xbdb94e2a	-0.09048112
219	0x3e3d391a	0.18478814
220	0xbc80e49b	-0.015734008
221	0xbdbf616a	-0.09344752
222	0xbc3399e6	-0.010961985
223	0xbc05e72d	-0.008172792
224	0x3cb76d55	0.022391
225	0xbc8d362c	-0.017237745
226	0x3cfc865f	0.030825792
227	0xbc98b771	-0.01864216
228	0xbd4c707c	-0.04991196
229	0xbd877d86	-0.066157386
230	0xbb5cd960	-0.0033698902
231	0x3bba3d90	0.0056836084
232	0x3c7221b5	0.014778544
233	0xbd7d3a0e	-0.061822943
234	0x3d75eff3	0.060043287
235	0xbdcdad2f	-0.10042798
236	0x3d4ead6b	0.050458353
237	0x3ddc7594	0.10764614
238	0xbd02eb10	-0.031962454
239	0xbd83547e	-0.064126
240	0xbd975bdf	-0.0739057
241	0xbaf26b10	-0.0018495042
242	0x3dd20d75	0.10256473
243	0x3de8f2cf	0.11374437
244	0xbca8f573	-0.020624852
245	0xbd80535f	-0.06265902
246	0x3dbf0ee8	0.09329015
247	0x3e361425	0.17781122
248	0xbdab8493	-0.08374896
249	0x3d72815b	0.059205394
250	0xbcc532d8	-0.024072096
251	0x3bba3a58	0.0056832246
252	0x3cea902f	0.028633205
253	0x3e01fe95	0.12694772
254	0xbe2502e7	-0.16114388
255	0xbdb407a8	-0.08790523
