model/mnist.pth (torch_old, 47939 bytes, 3 tensors)

conv1.weight f4 [8, 1, 5, 5]
0	0xbdde1cf3	-0.108453654
1	0xbe449e8a	-0.19201103
2	0x3d155b34	0.03646393
3	0x3e5e8d5d	0.21733613
4	0x3e9002aa	0.28127033
5	0xbcf13670	-0.029444903
6	0x3dcf9e6b	0.10137638
7	0x3e3d4f36	0.18487248
8	0xbaca97ee	-0.0015456656
9	0x3e232ac9	0.1593429
10	0xbdfb6970	-0.1227597
11	0x3db12a36	0.08650629
12	0x3e5ebb84	0.21751219
13	0xbe03b3e3	-0.1286159
14	0xbbbc6978	-0.0057498775
15	0xbe1b9397	-0.1519302
16	0x3c936b3b	0.017995467
17	0xbd5f444f	-0.054508504
18	0xbde59c8b	-0.11211499
19	0x3e03865d	0.12844224
20	0x3e808444	0.2510091
21	0x3d28a678	0.041174382
22	0xbe51ba85	-0.20481308
23	0xbdd319fb	-0.1030769
24	0x3d90b4b7	0.070657186
25	0xbd60b81d	-0.054863084
26	0xbec80a26	-0.39070243
27	0xbd4f3e05	-0.050596256
28	0x3e87431f	0.26418397
29	0x3e3a3a71	0.18186356
30	0x3c0fb569	0.008771279
31	0x3ea8fbd5	0.33004633
32	0x3f0ffb45	0.5624278
33	0x3f42e1bc	0.76125693
34	0x3f5106d9	0.81651074
35	0xbd71e55f	-0.059056636
36	0x3edf434a	0.43606025
37	0x3f84140a	1.0318615
38	0x3fbaeacb	1.4602903
39	0x3f76d4c3	0.964184
40	0xbc00f136	-0.007870009
41	0x3f23bbf6	0.6395868
42	0x3f95353c	1.1656871
43	0x3fa73c10	1.3065205
44	0x3f6660cc	0.8999145
45	0xbdcc56da	-0.09977503
46	0x3e0ef775	0.13961585
47	0x3ecba3dc	0.39773452
48	0x3f1d65e6	0.6148361
49	0x3edb9cfd	0.4289321
50	0xbd1e3e9a	-0.03863392
51	0x3e2c6d1e	0.168385
52	0x3e78f444	0.2431193
53	0x3ea9187a	0.33026487
54	0x3e878c29	0.2647412
55	0xbc7a3f11	-0.015273825
56	0xbe27ca33	-0.16385727
57	0xbe072164	-0.13196331
58	0x3ea3df55	0.32006326
59	0x3e302141	0.17200185
60	0x3d30771f	0.043082353
61	0xbe5ad8c3	-0.2137175
62	0xbdfc07ef	-0.12306201
63	0xbdfbc53f	-0.12293481
64	0x3e8ba849	0.2727683
65	0xbdce6a2a	-0.10078843
66	0xbe3705ba	-0.17873278
67	0xbe137867	-0.14401399
68	0xbd478afb	-0.048716526
69	0x3dd551a2	0.10415961
70	0xbdd9d273	-0.10635843
71	0x3c7729b7	0.015085629
72	0xbb43325a	-0.002978465
73	0xbe88824e	-0.26661915
74	0xbe0c75d8	-0.13716829
75	0xbe37c695	-0.17946847
76	0xbe149a0b	-0.14511888
77	0x3dfba595	0.12287442
78	0xbe2e15a3	-0.17000441
79	0x3d396ae4	0.045267954
80	0xbddbe337	-0.10736697
81	0xbe4ac14e	-0.19800302
82	0x3c9ba8a1	0.019001307
83	0xbd82c7bc	-0.063857526
84	0xbe1dfee3	-0.15429263
85	0xbe417af8	-0.18894565
86	0xbd88c9d6	-0.06679122
87	0xbdcf6f7b	-0.10128685
88	0x3e117be0	0.14207411
89	0xbd7c7087	-0.061630752
90	0xbd154acb	-0.03644828
91	0x3e36605e	0.17810199
92	0xbe00f7d8	-0.12594545
93	0x3e211dfb	0.15734093
94	0xbe38d5d0	-0.18050313
95	0xbe30f6c8	-0.1728164
96	0x3db8354e	0.08994542
97	0x3d0f734d	0.03502207
98	0xbd92ed29	-0.07174141
99	0xbd067ba0	-0.03283274
100	0xbdd97800	-0.10618591
101	0xbe6018fa	-0.21884528
102	0xbd0444fc	-0.03229235
103	0xbe236196	-0.15955195
104	0x3d22063e	0.039556734
105	0xbe37deba	-0.17956057
106	0xbd84f85e	-0.06492685
107	0xbe8edbb5	-0.27901998
108	0xbe8831ae	-0.26600403
109	0xbe7351c1	-0.23761655
110	0x3e6e9451	0.23298766
111	0xbe5e5883	-0.21713452
112	0x3da3cca6	0.07998018
113	0xbe30df86	-0.17272767
114	0x3d8daa2d	0.06917224
115	0x3e7c6532	0.24647978
116	0x3e79ba5a	0.24387494
117	0x3e6f15f6	0.23348221
118	0x3e16cbb2	0.14726141
119	0x3e70fe7f	0.23534583
120	0x3e94f457	0.29092667
121	0x3e79c7c4	0.24392611
122	0x3e6b8d1e	0.2300305
123	0x3e8dba0a	0.27681
124	0x3e0a7059	0.1351942
125	0x3e61b9f5	0.22043593
126	0x3f225135	0.6340516
127	0x3f2984cb	0.6621825
128	0x3f1f482a	0.6221949
129	0x3f083071	0.53198916
130	0x3ef251d9	0.4732807
131	0x3f3e95f4	0.7444756
132	0x3f69b20d	0.9128731
133	0x3f687b1e	0.9081286
134	0x3f25a2b4	0.6470139
135	0x3ec630fe	0.38709253
136	0x3f10ef0a	0.56614745
137	0x3f0a554e	0.54036415
138	0x3f1dfde0	0.6171551
139	0x3ed05752	0.4069162
140	0x3da5751c	0.080789775
141	0x3eab5810	0.33465624
142	0x3d99f8ad	0.07518134
143	0xbdc0f72b	-0.094221435
144	0xbe2fbed7	-0.17162643
145	0xbe9a433f	-0.3012943
146	0xbe00c2c4	-0.12574297
147	0xbd6315dd	-0.055440772
148	0xbe02dda8	-0.12779868
149	0xbeb1490f	-0.34626052
150	0x3ec84492	0.39114815
151	0x3f19a361	0.6001492
152	0x3f0fd838	0.561893
153	0x3e4aa55d	0.19789644
154	0xbe2e2981	-0.1700802
155	0x3f0e1efb	0.5551602
156	0x3f3afa9e	0.7303866
157	0x3f430a4c	0.76187587
158	0x3e8b24d6	0.2717654
159	0x3e9024df	0.2815313
160	0x3e8ecfb2	0.27892834
161	0x3ee3d966	0.445018
162	0x3edcddea	0.43138057
163	0x3dfc1c90	0.12310135
164	0x3e194a2c	0.149697
165	0x3ebc98e0	0.36835384
166	0x3e1dd5b4	0.15413553
167	0x3e2bea1a	0.16788521
168	0x3da134be	0.07871388
169	0xbd083d49	-0.03326157
170	0x3daf231c	0.085516185
171	0xbdfc920c	-0.12332544
172	0xbe2655e5	-0.16243704
173	0xbc9444d4	-0.018099226
174	0xbdebd304	-0.115148574
175	0x3ddbd8f9	0.107347436
176	0x3e79c7eb	0.24392669
177	0x3e3b2e97	0.18279491
178	0x3efcb4c1	0.49356654
179	0x3e45aefc	0.19305032
180	0x3f0e5d0a	0.55610716
181	0x3f329344	0.6975596
182	0x3f83948c	1.0279708
183	0x3f78695a	0.97035754
184	0x3eff9f0b	0.49926028
185	0x3f1a4e17	0.60275406
186	0x3f81f29e	1.0152166
187	0x3f84ebd6	1.0384471
188	0x3f7359c9	0.95058876
189	0x3e987ba8	0.29781842
190	0x3eaea93d	0.34113494
191	0x3f3972c1	0.72440726
192	0x3f3a43ed	0.72759897
193	0x3ea8cb8d	0.32967797
194	0x3e86d105	0.26331344
195	0xbe175b53	-0.14780931
196	0xbe129e63	-0.14318232
197	0xbe6a1bc4	-0.22862154
198	0xbe2334bf	-0.1593809
199	0xbd1f4b8e	-0.038890414

conv2.weight f4 [32, 8, 5, 5]
0	0x3c0a3327	0.008435047
1	0x3d01938c	0.031634852
2	0x3c564e0d	0.013080132
3	0x3b287f35	0.0025710587
4	0x3c7b301f	0.015331297
5	0xbd4b3a93	-0.049616408
6	0x3d40f9f0	0.04711336
7	0x3d2eb3c5	0.04265191
8	0xbcc11e99	-0.02357416
9	0xbcefd8be	-0.029278155
10	0x3c31918f	0.0108379265
11	0xbda72c6a	-0.08162768
12	0xbd3e619a	-0.0464798
13	0xbc07ab9a	-0.008280659
14	0xbc854d3a	-0.016272176
15	0x3ceeda87	0.029156936
16	0x3b6985c9	0.003563272
17	0xbcfc5e93	-0.030806815
18	0xbd661210	-0.05616957
19	0x3b10ec8f	0.0022113656
20	0xbd7d7ec6	-0.06188848
21	0x3d1f952a	0.038960613
22	0x3d9e0071	0.07714928
23	0xbd079dc0	-0.033109426
24	0x3d8b1958	0.06791943
25	0x3daa6948	0.08320862
26	0xbe190cfc	-0.1494636
27	0xbcb713c4	-0.022348292
28	0x3e41153b	0.18855755
29	0x3d7019e0	0.058618426
30	0xbd0355f4	-0.032064393
31	0xbe158f6e	-0.14605495
32	0x3ddab763	0.106795095
33	0x3df6a62e	0.12043415
34	0xbdae84da	-0.08521433
35	0xbe06205e	-0.13098285
36	0xbd517d4d	-0.051144887
37	0x3e0ee624	0.13954979
38	0x3c94390c	0.018093608
39	0xbd9f49c0	-0.077777386
40	0xbde3a5c5	-0.111156024
41	0x3c51a9fa	0.012796873
42	0x3e078976	0.13236031
43	0xbd658d65	-0.056043047
44	0xbd8d481b	-0.06898519
45	0x3d2d19d4	0.04226096
46	0x3dbac0e2	0.09118821
47	0x3d94a13c	0.072573155
48	0xbcf0d5f7	-0.029398901
49	0xbca25bdb	-0.01981919
50	0x3d35e7f6	0.04441067
51	0xbc2c0c1f	-0.010500937
52	0xbd8caf67	-0.06869393
53	0x3d6852da	0.05671964
54	0xbd37ee1d	-0.044904817
55	0xbd2315a0	-0.039815545
56	0xbd366bd5	-0.04453643
57	0x3d2f8fef	0.042861875
58	0x3d8638fc	0.06553838
59	0xbd86afdb	-0.065765105
60	0x3d2cf265	0.042223353
61	0x3d436beb	0.04771034
62	0x3d1dbf0c	0.038512275
63	0xbd82aa7b	-0.06380173
64	0x3c881b4a	0.016614575
65	0x3ca301c4	0.019898303
66	0xbd17d0af	-0.03706425
67	0x3da50830	0.08058202
68	0xbd47612e	-0.048676662
69	0xbc84be55	-0.016204039
70	0xbd126a12	-0.035745688
71	0x3c5d4634	0.013505507
72	0x3ceb7287	0.028741134
73	0x3d4bdd8c	0.04977183
74	0x3aa45758	0.0012538237
75	0xbd8267c1	-0.06367446
76	0x3d10f94e	0.035394005
77	0x3d58f531	0.052968208
78	0x3c7e68be	0.015527902
79	0xbd319ebc	-0.04336427
80	0x3cad55d6	0.021159094
81	0x3d86bef1	0.06579388
82	0xbca1a64b	-0.019732615
83	0xbd2d32d8	-0.042284817
84	0xbd4fcf8e	-0.05073505
85	0x3c710a72	0.014711963
86	0x3cf63be2	0.030057851
87	0x3d91a505	0.07111553
88	0x3d5a1f99	0.05325279
89	0x3d86b531	0.06577528
90	0x3ca48b6e	0.020086017
91	0x3d7376b4	0.059439376
92	0x3d5beed4	0.05369456
93	0x3d35221a	0.044221975
94	0x3cb0aadc	0.021565847
95	0x3d6e212d	0.058137108
96	0xbd831eea	-0.06402381
97	0x3b07b523	0.002070733
98	0xbd59acfd	-0.05314349
99	0x3d2d29be	0.042276137
100	0x3db8208c	0.08990583
101	0x3c359875	0.011083712
102	0x3d05cdf5	0.03266712
103	0xbd99ea38	-0.07515377
104	0xbc71c0cf	-0.014755442
105	0x3bfd1433	0.007723355
106	0x3cb97df4	0.022643067
107	0x3be17c8c	0.006881302
108	0xbd5e3e06	-0.05425837
109	0x3cf2db1a	0.029645491
110	0x3d4814f2	0.0488481
111	0xbd2b428a	-0.041811503
112	0xbd0e7923	-0.034783494
113	0xbd903239	-0.07040829
114	0xbd8c2fb3	-0.068450354
115	0x3d2734c1	0.040821794
116	0x3d807647	0.062725596
117	0x3c469174	0.01211964
118	0xbd83a638	-0.06428188
119	0xbd55270a	-0.052039184
120	0x3da30a65	0.07960967
121	0xbd041972	-0.03225083
122	0x3c31f930	0.010862634
123	0x3c3f5344	0.011677567
124	0x3c4b987d	0.012426493
125	0xbb169712	-0.0022978229
126	0xbdafbec7	-0.0858131
127	0xbe215b09	-0.15757383
128	0x3d6e2cf6	0.058148347
129	0x3d5520e9	0.05203334
130	0xbbfe305e	-0.0077572307
131	0xbbff854f	-0.007797874
132	0xbe0c2b75	-0.13688453
133	0x3d44d906	0.048058532
134	0x39db0545	0.0004177486
135	0xbbc15e31	-0.005901121
136	0xbd911609	-0.07084281
137	0x3c1fe1ee	0.009758456
138	0x3dbcfbbb	0.09227701
139	0x3d1a7790	0.03771168
140	0x3c8cdb20	0.01719433
141	0xbd86ec18	-0.06588
142	0x3db8bc0b	0.09020241
143	0x3d525bee	0.051357202
144	0x3d655cc2	0.055996664
145	0xbda4a954	-0.08040109
146	0xbc47ef92	-0.012203114
147	0x3de1c2d9	0.11023492
148	0x3bd2be74	0.006431395
149	0x3cd0e44a	0.025499482
150	0xbd3b59ec	-0.045740053
151	0xbd742f43	-0.059615385
152	0xbda1d459	-0.0790183
153	0xbda0e9bf	-0.078570835
154	0x3d958d7a	0.07302375
155	0x3d907705	0.07053951
156	0xbd426a9c	-0.047464952
157	0xbddf25ce	-0.108958825
158	0xbd706fda	-0.05870042
159	0x3e0efdda	0.13964024
160	0x3d3be8c5	0.045876283
161	0xbd1e60e5	-0.038666625
162	0xbc7c3984	-0.015394572
163	0x3ca213b3	0.019784784
164	0x3df12602	0.117748275
165	0xbd60186f	-0.0547108
166	0x3b799b2c	0.0038086874
167	0x3d8e443b	0.06946608
168	0x3d7c006c	0.06152384
169	0x3cd9530c	0.026528858
170	0x3d6bc9e2	0.057565577
171	0xbd605897	-0.054771986
172	0xbb34925c	-0.0027553057
173	0x3d393736	0.04521867
174	0x3d3e21fc	0.04641913
175	0xbd101e4b	-0.03518514
176	0xbdaa61c6	-0.0831943
177	0xbde80a92	-0.11330141
178	0x3d3cdbe3	0.046108138
179	0x3dcf8e44	0.10134557
180	0xba81736e	-0.000987632
181	0xbde64e57	-0.11245411
182	0xbe03b6b1	-0.1286266
183	0x3e027a1c	0.12741894
184	0x3d71eed6	0.059065662
185	0x3c84fcbc	0.016233794
186	0xbda60355	-0.08106104
187	0xbc341aef	-0.01099275
188	0x3e07e310	0.13270211
189	0x3dad15a1	0.08451391
190	0xbcbd5c66	-0.023115348
191	0xbd99411f	-0.07483124
192	0x3deaa73e	0.1145768
193	0x3e1176c4	0.14205462
194	0xbcc0047f	-0.023439644
195	0xbce66d22	-0.02812821
196	0xbd6da9f8	-0.058023423
197	0x3d1c4556	0.03815206
198	0x3d82c85e	0.06385873
199	0x3cd48f03	0.0259471
200	0x3d6f8e3e	0.058485262
201	0x3d3f3ff0	0.046691835
202	0xbc3ecb34	-0.011645127
203	0xbd9a9287	-0.07547479
204	0x3cf92702	0.030414108
205	0x3b440794	0.0029911743
206	0xbcd308d9	-0.025761055
207	0xbd69e06c	-0.05709879
208	0xbce7635e	-0.028245624
209	0x3d3239c1	0.04351211
210	0x3d0d1e6d	0.034452844
211	0x38f5716c	0.00011703637
212	0xbd2f5799	-0.04280815
213	0x3cac4074	0.021026827
214	0xbc2596a4	-0.010106716
215	0xbc3d6190	-0.011558905
216	0xbd3d9564	-0.046285048
217	0x3c960628	0.018313482
218	0xbd3430b4	-0.04399176
219	0xbd040544	-0.032231584
220	0xbd77a2c7	-0.06045797
221	0xbb137f2a	-0.0022506216
222	0xbcc08d57	-0.023504896
223	0xbd87ceb9	-0.06631226
224	0x3d0bc3b1	0.034122173
225	0x3b35226e	0.002763893
226	0x3d70d695	0.05879839
227	0xbe1da655	-0.15395482
228	0xbd1b1973	-0.037866067
229	0x3dec61c1	0.115420826
230	0x3c7e5437	0.015523008
231	0x3d80045d	0.06250832
232	0x3cb082a3	0.021546667
233	0x3db10e2f	0.086452834
234	0x3df60e16	0.120144054
235	0x3d6211c7	0.055192735
236	0x3d8017fd	0.062545754
237	0x3db779f8	0.089588106
238	0x3e37cb48	0.1794864
239	0x3e248e97	0.16070019
240	0xbe495762	-0.1966224
241	0xbdf7c351	-0.120978005
242	0xbe3f471c	-0.1867947
243	0xbdb19568	-0.08671075
244	0xbcef3c0b	-0.029203435
245	0xbe7c7229	-0.24652924
246	0xbe3ffc72	-0.18748644
247	0xbe9457b1	-0.28973153
248	0xbe8719a2	-0.26386744
249	0xbcb583e7	-0.022157623
250	0xbca352f0	-0.019937009
251	0xbcd785db	-0.026308944
252	0xbb4d732b	-0.0031349163
253	0x3be32474	0.006931836
254	0x3d9dd60e	0.07706843
255	0xbce5db3f	-0.028058646

fc1.weight f4 [10, 512]
0	0x3ce8d4bb	0.02842175
1	0xbd12a2bf	-0.035799738
2	0xbb9e05c5	-0.004822465
3	0x3c0161ea	0.00789688
4	0xbcde3c5f	-0.027128397
5	0xbddc223b	-0.107487164
6	0x3c963211	0.01833442
7	0xbbc03a54	-0.0058663283
8	0xbdbaf9b1	-0.09129656
9	0xbd85d8c6	-0.06535487
10	0x3c2cc430	0.010544822
11	0x3dad9490	0.08475602
12	0xbcfbaac2	-0.030721072
13	0xbe024201	-0.12720491
14	0xbc7fc632	-0.015611218
15	0x3d397270	0.04527515
16	0xbd3b907a	-0.04579208
17	0x3d1a8380	0.037723064
18	0xbda72648	-0.081615984
19	0xbc865286	-0.016396772
20	0xbd77266a	-0.06033937
21	0xbd8b37de	-0.06797765
22	0x3ba6dccf	0.0050922404
23	0x3d378d8d	0.044812728
24	0x3b2b7713	0.0026163503
25	0xbb8366d6	-0.0040100617
26	0xbcb028d4	-0.021503843
27	0x3cfbddcb	0.030745408
28	0x3e2c5bcf	0.16831897
29	0x3db3e761	0.087843664
30	0x3de5ee0c	0.112270445
31	0x3d960ab9	0.07326264
32	0xbd94d5d1	-0.07267345
33	0xbc0d6119	-0.008629107
34	0x3d5d2c00	0.05399704
35	0xbda7a247	-0.08185249
36	0x3cb45020	0.022010863
37	0x3cc645a4	0.02420313
38	0xbcb5d872	-0.022197936
39	0xbdb94cf5	-0.090478815
40	0xbe68769e	-0.22701499
41	0x3add69db	0.0016892509
42	0xbdaf36f9	-0.08555407
43	0x3c1fba0b	0.009748946
44	0xbaae6371	-0.0013304782
45	0xbd013d96	-0.031552874
46	0x3c1fb690	0.009748116
47	0x3d820798	0.06349105
48	0xbd539473	-0.051655244
49	0x3d80be16	0.06286256
50	0x3dd3f737	0.10349887
51	0x3c6657ce	0.01405902
52	0x3dbb2303	0.09137537
53	0x3d56e674	0.05246587
54	0x3dc9f222	0.09860636
55	0xbc9a7f04	-0.018859394
56	0x3e027ba0	0.12742472
57	0x3dc87e4f	0.097897165
58	0xbe1ac1a4	-0.1511293
59	0x3d9d52c9	0.07681806
60	0x3e5868f7	0.21133791
61	0x3d9bf01a	0.07614155
62	0xbddb15a2	-0.106974855
63	0x3d980221	0.07422281
64	0xbd6ebaa6	-0.05828347
65	0x3bd47d6e	0.006484679
66	0x3d30effc	0.043197617
67	0xbd370314	-0.04468067
68	0x3d4d0ad3	0.05005915
69	0x3d3772ab	0.04478709
70	0x3d4daa3b	0.050211173
71	0xbcd6c58f	-0.02621725
72	0x3d337114	0.04380901
73	0x3dc91236	0.098179266
74	0xbd71c317	-0.059023943
75	0x3cebf3a7	0.028802706
76	0xbc659af0	-0.014013991
77	0x3db9389c	0.090440005
78	0xbd1c3276	-0.03813406
79	0x3cd98834	0.026554205
80	0x3cfe10d5	0.031013886
81	0x3dedb282	0.11606313
82	0x3e23a99e	0.15982673
83	0xba4e8a9c	-0.0007878931
84	0xbd044fca	-0.032302655
85	0x3d3565bb	0.04428647
86	0x3da69684	0.08134177
87	0x3d56b304	0.052416816
88	0xbe1b6efd	-0.15179057
89	0xbd063943	-0.032769453
90	0xbe085f75	-0.13317664
91	0xbdd4a28a	-0.10382564
92	0xbe1b6c8b	-0.15178125
93	0xbe494962	-0.196569
94	0xbcdc1846	-0.026867043
95	0x3d157c64	0.03649558
96	0x3b6b5ba5	0.0035912779
97	0x3c9c2e47	0.019065036
98	0xbbcfdd27	-0.006343502
99	0x3d6eccb7	0.0583007
100	0xbe09dbd8	-0.1346277
101	0xbdc82e65	-0.09774474
102	0xbd23d47a	-0.039997555
103	0x3b8f0f4a	0.0043658363
104	0xbcfdcab2	-0.030980442
105	0xbd8be451	-0.06830657
106	0xbd557256	-0.052110992
107	0xbd0c46d6	-0.034247242
108	0x3d8488e8	0.06471425
109	0x3dc741e1	0.09729362
110	0xbc409742	-0.011754813
111	0xbbbfbecc	-0.005851602
112	0xbc14c8b7	-0.009081057
113	0x3cd1ffeb	0.025634727
114	0x3d9c25f6	0.07624428
115	0x3df105cf	0.11768686
116	0xbe5fbf41	-0.21850301
117	0x3d128d82	0.035779484
118	0x3df07263	0.117405675
119	0xbd3806a3	-0.044928204
120	0xbdc2d1bc	-0.0951266
121	0xbe1d7cd8	-0.15379655
122	0xbe2b1d08	-0.16710293
123	0xbd74b000	-0.05973816
124	0xbe293f0e	-0.1652796
125	0x3d7e9149	0.062150273
126	0x3d05b520	0.032643437
127	0x389a43a3	7.3558906e-05
128	0xbc973bb3	-0.018461084
129	0xbc98d2ab	-0.018655142
130	0xbe1e4e94	-0.15459663
131	0xbce974e6	-0.028498124
132	0x3d07339f	0.033008214
133	0x3d33a5b3	0.043859195
134	0x3cc4d4f2	0.024027321
135	0x3dbc7604	0.09202197
136	0x3cc55995	0.024090568
137	0xbdac3b0d	-0.084097005
138	0x3d80bf70	0.06286514
139	0x3c157b58	0.009123646
140	0xbd94b851	-0.07261718
141	0xbdd141de	-0.10217641
142	0x3c6da247	0.014504022
143	0xbd5feb2e	-0.054667644
144	0x3c64b903	0.013960126
145	0x3baeea61	0.0053379987
146	0x3d697d4a	0.05700425
147	0xbab5cdd9	-0.0013870551
148	0x3d72f27b	0.05931328
149	0x3db7d123	0.089754365
150	0xbca4a60c	-0.020098709
151	0xbdefac5f	-0.11702799
152	0xbc3c1fe4	-0.011482213
153	0xbd284d8a	-0.041089572
154	0x3c924045	0.017852912
155	0x3e2d150a	0.16902557
156	0xbdc700b8	-0.09716934
157	0x3acee690	0.0015785266
158	0xbc2d2ab6	-0.010569265
159	0x3ddf3897	0.108994655
160	0xbd05844b	-0.032596868
161	0x3d9bca54	0.076069504
162	0x3e87576a	0.2643388
163	0x3e0b9177	0.13629709
164	0xbd070f6b	-0.032973688
165	0xbd01ab12	-0.031657286
166	0x3e38e003	0.18054204
167	0x3dcb28c2	0.09919883
168	0x3b5d65ae	0.003378253
169	0xbd297c28	-0.04137817
170	0xba4a5495	-0.0007718292
171	0x3b41c6e4	0.002956801
172	0x3b412d7e	0.0029476578
173	0xbd9dac71	-0.07698906
174	0xbd8c817e	-0.06860636
175	0x3ad8c21b	0.001653734
176	0xbd56bf49	-0.052428517
177	0x3cb239d1	0.021756085
178	0x3d428cae	0.047497444
179	0x3d66d7d7	0.056358185
180	0x3c7df14f	0.015499427
181	0xbdb8b10a	-0.090181425
182	0x3da824c8	0.082101405
183	0xbcb397d8	-0.02192299
184	0x3bbec0b6	0.005821313
185	0xbe0cad07	-0.1373788
186	0x3d815b84	0.06316283
187	0xbc90bfed	-0.017669642
188	0xbc9900bc	-0.018677108
189	0xbcf768eb	-0.030201396
190	0x3d4e930f	0.050433215
191	0x3d6045ef	0.054754194
192	0xbc24a77f	-0.0100497
193	0x3d302634	0.043005183
194	0xbc850400	-0.016237259
195	0x3da6c1c7	0.08142429
196	0xbd23c440	-0.03998208
197	0xbc944dbd	-0.018103475
198	0xbb6a4b55	-0.0035750468
199	0x3bc54291	0.006019898
200	0xbd491044	-0.049087778
201	0xbc081c8b	-0.008307586
202	0xbd4201ee	-0.04736512
203	0xbdc82290	-0.09772217
204	0x3d2b3888	0.04180196
205	0x3e220eef	0.15826009
206	0x3e3ae23d	0.18250366
207	0xbce15a0f	-0.027508764
208	0x3d062dfd	0.0327587
209	0x3d0f46cb	0.034979623
210	0x3d3d56e7	0.046225455
211	0xbe170e49	-0.14751543
212	0xbd329fda	-0.043609478
213	0xbd862549	-0.0655008
214	0xbdbed72f	-0.09318387
215	0xbcad54c8	-0.02115859
216	0x3cbc8214	0.023011245
217	0xbdc886d8	-0.097913444
218	0xbdb9544d	-0.09049282
219	0x3e43050d	0.19044895
220	0xbc6198b1	-0.013769315
221	0xbdbb6ce6	-0.0915163
222	0xbc0c5df9	-0.008567327
223	0xbc13fbb6	-0.0090321805
224	0x3cad9cbf	0.021192906
225	0xbc9be69d	-0.019030863
226	0x3cf3d194	0.02976302
227	0xbc9c5dc3	-0.019087678
228	0xbd49fd39	-0.049313758
229	0xbd878541	-0.06617213
230	0xbb105bbc	-0.0022027334
231	0x3b73292f	0.0037103405
232	0x3c69b06a	0.014263252
233	0xbd81eb4a	-0.06343706
234	0x3d7a078c	0.061042354
235	0xbdd16f2b	-0.10226282
236	0x3d4d4d8f	0.050122794
237	0x3ddf3e7a	0.10900588
238	0xbd008e5a	-0.031385757
239	0xbd842b2a	-0.064535454
240	0xbd9eca76	-0.0775346
241	0xb9d4f199	-0.00040615795
242	0x3dd4913a	0.10379262
243	0x3dea3b93	0.11437144
244	0xbca673a1	-0.020318808
245	0xbd86c115	-0.06579796
246	0x3dc0cf9e	0.094146
247	0x3e36e5c6	0.17861089
248	0xbdadf975	-0.08494846
249	0x3d7c099d	0.061532605
250	0xbcc94c21	-0.024572434
251	0x3ac774de	0.0015217324
252	0x3cd9d5d0	0.026591212
253	0x3e080609	0.13283552
254	0xbe2698d9	-0.16269244
255	0xbdb8cd1f	-0.09023499
